lightning_logs/version_10/checkpoints/epoch=275-step=552.ckpt (torch, 335922 bytes, 18 tensors)

lstm.weight_ih_l0 f4 [200, 84]
0.016996872 0.058888044 -0.13587768 -0.1302217 0.042082448 -0.04242858 -0.014800427 0.03092572
0.08329101 0.05685931 0.115704745 -0.100563586 -0.011579564 0.062343676 0.10500932 -0.10564417
0.12874873 -0.1040375 -0.053201277 0.06173767 0.10998956 0.027222315 -0.1493179 -0.07564288
-0.088519424 0.028504396 0.00496942 -0.12079887 0.15112597 0.16531767 -0.13408503 0.015600875
-0.038160276 -0.055210996 -0.03849003 -0.13216001 -0.010632722 0.1298287 -0.060572285 0.00352256
0.059645083 0.13680151 0.011320223 -0.086203724 -0.037035257 -0.06569357 0.02029557 0.13575889
0.09802836 0.15306908 0.049699318 0.012403086 -0.042206027 -0.018399969 0.10885638 0.08600308
0.013137363 -0.054585382 0.03115544 0.046901718 0.09787374 -0.030237217 0.06200385 0.053980023
-0.017889563 0.10516858 0.022364713 0.11870675 0.09977492 0.017522825 -0.15534309 0.11967607
0.00087275024 0.15755047 -0.026353242 -0.09185916 -0.0063576913 -0.048789073 -0.13316953 -0.122039035
-0.111416556 -0.032945473 -0.14828508 0.1350876 -0.008890311 -0.0076415655 0.055463754 0.061805844
0.16021837 -0.07509116 -0.04886627 0.02069132 -0.09818725 -0.010166936 0.08203903 -0.03660825
0.12624748 -0.121748514 -0.094786495 -0.03616198 0.1446972 -0.1130104 -0.0720499 -0.011201337
-0.025816755 0.1386733 0.10416988 0.1221367 0.0987756 0.04716672 0.04251696 0.08229937
-0.060257513 0.09780256 -0.122767136 0.057739496 0.13642892 0.028015321 0.08562636 0.10932545
0.15826112 0.08675735 -0.12180506 0.124041006 -0.00045111257 0.086293854 -0.028681368 0.07177283
0.09570085 -0.04127304 0.028303565 -0.03886359 -0.057491075 0.060933623 0.089826785 0.058138058
-0.06431247 0.11098094 0.04787303 0.032041907 -0.1216499 0.014962344 0.08111506 0.13223998
0.041314468 0.050307177 -0.038938373 -0.016050413 0.033168565 -0.07966403 -0.015656108 -0.043414243
-0.02738508 -0.0032456717 0.07909239 0.0358063 0.07655064 -0.07502186 0.072437055 -0.048473686
0.011399802 -0.046143465 -0.102787964 -0.05126193 0.05199125 0.031190487 0.073633365 0.017960757
-0.09357978 0.012308637 0.10011001 0.03779319 0.006973236 0.12368001 0.100539446 -0.014583528
0.039389554 0.14035207 -0.13083361 -0.049839124 -0.027288778 0.08744889 0.089783944 0.09750582
0.10412433 -0.09039515 0.08919874 0.0011942685 0.010042573 -0.06855318 0.093137026 0.006876439
-0.08172154 0.14380814 0.11435296 0.041082352 -0.027810674 0.099708766 -0.07086392 0.12059961
0.09904619 -0.02337962 -0.026409186 -0.083370656 -0.092956915 -0.01980473 -0.13977835 0.033993125
0.118690334 -0.11529395 -0.061898895 -0.057674304 0.05000271 0.09032382 -0.056435145 -0.13477759
0.055335656 0.106121145 -0.106021926 0.001626566 0.14987129 0.15185978 0.101781696 0.038916722
-0.08166082 0.11757389 -0.029169828 -0.09898613 0.07754706 -0.022975078 -0.011387764 0.089245096
0.033116404 -0.08292351 -0.08671433 -0.035730615 -0.07264071 -0.074509874 0.012690531 -0.050405577
0.06492 -0.095515974 -0.16178566 -0.025142387 0.09128779 -0.06530843 0.017322538 0.04124017
-0.047829896 0.13343522 0.030751191 0.11818771 0.09264364 0.051240925 -0.08951516 0.028850377
00000000: 063d 8b3c 9734 713d 8523 0bbe d658 05be
00000010: a55e 2c3d 97c9 2dbd 7d7d 72bc f057 fd3c
00000020: 7a94 aa3d 4fe5 683d 9cf6 ec3d 48f4 cdbd
00000030: 36b8 3dbc 155c 7f3d 200f d73d f85b d8bd
00000040: b5d6 033e 9d11 d5bd 95e9 59bd a4e0 7c3d
00000050: 3542 e13d 5501 df3c cbe6 18be a7ea 9abd
00000060: ac49 b5bd 0d82 e93c 84d6 a23b 6665 f7bd
00000070: c4c0 1a3e 0949 293e 964d 09be d09a 7f3c
00000080: f34d 1cbd ed24 62bd b9a7 1dbd f454 07be
00000090: de34 2ebc d1f1 043e a51a 78bd c0da 663b
000000a0: 674e 743d b215 0c3e 7578 393c 948b b0bd
000000b0: 48b2 17bd 5a8a 86bd e542 a63c 6104 0b3e
000000c0: 18c3 c83d 24be 1c3e 8391 4b3d 5036 4b3c
000000d0: 3ae0 2cbd 88bb 96bc 18f0 de3d 6222 b03d
000000e0: 183e 573c ec94 5fbd b139 ff3c 041c 403d
000000f0: 0772 c83d 0ab4 f7bc c0f7 7d3d 281a 5d3d
00000100: 228d 92bc a062 d73d 3436 b73c 861c f33d
00000110: cb56 cc3d 078c 8f3c 4212 1fbe ba18 f53d
00000120: 47c9 643a e954 213e c1e2 d7bc a820 bcbd
00000130: 2e54 d0bb 0dd7 47bd 985d 08be 9aef f9bd
00000140: 5d2e e4bd d5f1 06bd 0bd8 17be 6754 0a3e
00000150: aba8 11bc 1966 fabb f62d 633d 2028 7d3d
00000160: 4910 243e 65c9 99bd ff27 48bd d880 a93c
00000170: 6616 c9bd 3893 26bc 1404 a83d 88f2 15bd
00000180: 0547 013e 4957 f9bd 6c1f c2bd 961e 14bd
00000190: 812b 143e ff71 e7bd e68e 93bd d085 37bc
000001a0: a97d d3bc 6000 0e3e 0557 d53d ce22 fa3d
000001b0: dd4a ca3d e431 413d 4426 2e3d 928c a83d
000001c0: 95d0 76bd b54c c83d 566d fbbd 4080 6c3d
000001d0: 06b4 0b3e 6380 e53c df5c af3d 06e6 df3d
000001e0: 340f 223e d6ad b13d ee74 f9bd 3609 fe3d
000001f0: 4e83 ecb9 d5ba b03d 30f5 eabc a2fd 923d
00000200: cffe c33d eb0d 29bd e1dc e73c 6e2f 1fbd
00000210: c37b 6bbd 8995 793d 1bf7 b73d 2c22 6e3d
00000220: 42b6 83bd fa49 e33d 8316 443d 603e 033d
00000230: 9523 f9bd 9f24 753c a71f a63d eb69 073e
00000240: 5c39 293d e60e 4e3d d87d 1fbd 287c 83bc
00000250: c3db 073d e526 a3bd 3d41 80bc 22d3 31bd
00000260: ad56 e0bc 56b5 54bb 31fb a13d a0a9 123d
00000270: 95c6 9c3d 10a5 99bd e159 943d 588c 46bd
00000280: 3cc6 3a3c ee00 3dbd 7f82 d2bd 08f8 51bd
00000290: c7f4 543d 3183 ff3c 17cd 963d 7022 933c
000002a0: c1a6 bfbd 2aaa 493c 7a06 cd3d 08cd 1a3d
000002b0: be7f e43b f24b fd3d a0e7 cd3d c0ef 6ebc
000002c0: f156 213d 74b8 0f3e 3ff9 05be 1c24 4cbd
000002d0: b78c dfbc 6718 b33d a5e0 b73d 22b1 c73d
000002e0: 233f d53d 1821 b9bd d4ad b63d 0089 9c3a
000002f0: 9b89 243c 9c65 8cbd a0be be3d c053 e13b
00000300: 9f5d a7bd 7142 133e e231 ea3d f845 283d
00000310: 36d3 e3bc 1c34 cc3d 1a21 91bd eefc f63d
00000320: bbd8 ca3d 9e86 bfbc 1458 d8bc 3cbe aabd
00000330: 3260 bebd 873d a2bc 0e22 0fbe 603c 0b3d
00000340: eb13 f33d 3c1f ecbd b289 7dbd e43b 6cbd
00000350: a4cf 4c3d b2fb b83d 8a28 67bd 2303 0abe
00000360: a4a7 623d 0b56 d93d 0622 d9bd 8032 d53a
00000370: dc77 193e 2181 1b3e ec72 d03d 2467 1f3d
00000380: ca3d a7bd 94ca f03d 90f5 eebc 3db9 cabd
00000390: fed0 9e3d 3b36 bcbc be93 3abc 22c6 b63d
000003a0: 11a5 073d cdd3 a9bd 4897 b1bd 445a 12bd
000003b0: a7c4 94bd a298 98bd f2eb 4f3c 1476 4ebd
000003c0: c7f4 843d e19d c3bd 24ab 25be 68f7 cdbc
000003d0: 18f5 ba3d 6dc0 85bd ffe7 8d3c 74eb 283d
000003e0: 48e9 43bd 3ea3 083e ece9 fb3c 660c f23d
000003f0: f3bb bd3d 01e2 513d b953 b7bd a057 ec3c

lstm.weight_hh_l0 f4 [200, 50]
0.08835594 0.07261685 -0.09780466 -0.02883947 0.106284544 0.07359918 -0.046455536 0.074201345
0.012691919 -0.08654681 0.08002057 -0.15250239 -0.029260037 -0.027138352 -0.091785096 -0.061427537
-0.068094164 0.030700073 0.03614499 -0.14379294 -0.028117659 -0.03745891 0.101781204 -0.023024116
0.02202849 -0.14383854 0.010480786 -0.04033321 -0.14359148 0.03391134 0.042685956 0.0042052115
0.14088729 0.08615489 0.06323437 0.08719629 -0.009412724 -0.08574138 0.030557109 -0.046695698
0.046287388 0.02087617 -0.16152427 -0.06747946 0.07510658 0.022416353 -0.04691115 0.071271375
-0.061776392 0.1491512 0.15027738 -0.033588532 0.13132367 0.059976615 0.09320441 0.04171451
0.082925305 0.009667801 0.10492543 0.07172552 -0.067072 -0.028778775 0.02443172 -0.03993607
-0.08915935 0.11031574 0.06541572 0.07911158 0.13223818 -0.084659964 -0.107802995 -0.15538776
-0.034135867 -0.12113736 -0.11374494 0.10969024 -0.08766114 -0.06723124 0.044501588 -0.05978533
-0.050306562 0.057084538 -0.05113016 -0.113190435 -0.13195251 0.077941366 0.119792305 0.095027976
0.14929467 -0.053998504 0.1036523 0.066907905 0.07445017 -0.12376373 0.0172386 -0.15376207
-0.019579928 0.038153633 -0.0483298 -0.12891988 -0.09899182 0.093341224 -0.07064861 -0.071417764
0.08144937 -0.07406729 0.016511224 0.12650536 -0.11377611 -0.02548679 -0.056718674 -0.09670758
0.112770446 -0.025697645 -0.02472467 -0.106087975 0.12468104 0.06609011 -0.09892842 -0.043519616
-0.0563636 -0.017228486 0.10041574 -0.048688084 -0.02688984 -0.03485889 -0.003185755 0.10565301
-0.11356394 0.13371834 0.070397176 -0.04929821 -0.0161123 -0.10834303 -0.017363168 -0.10112769
0.035772745 -0.034460288 0.034887936 -0.055363636 -0.052402392 0.10765045 -0.16104569 -0.09066119
0.08300964 -0.14835902 0.03677545 -0.023116097 -0.047086116 0.1379718 0.08591617 -0.022117715
0.09556289 -0.08568673 0.07181462 0.10573413 0.055813953 -0.0023658853 -0.11649561 0.166444
0.016824786 -0.0587317 -0.05314663 0.08558585 -0.025359105 0.15761822 -0.000446683 0.0530573
0.0414142 0.021383129 -0.07782337 -0.09020141 -0.10825181 -0.03296061 -0.08853245 -0.106136404
0.13099362 0.09302245 -0.04084579 0.11204363 -0.1573449 0.06167285 -0.010539858 0.11115338
-0.020682614 0.07658196 0.1418205 0.0030060296 -0.0109110745 -0.121623576 -0.1032917 0.049397647
-0.11111506 0.083059594 0.016313914 -0.12103076 0.069758974 -0.033548463 0.10488855 -0.08058205
-0.0077774576 0.019763144 0.11281792 0.08055578 0.08793417 0.12778124 0.09236891 -0.022591801
-0.043686118 0.0050315033 0.119774394 -0.0594896 -0.050041676 -0.10404636 -0.037391048 0.12737638
-0.012424555 0.036495037 0.030716954 -0.0022846384 -0.094811335 -0.025430242 -0.0050511025 -0.08961871
-0.13395096 0.06332802 0.056706324 0.07869794 -0.11750852 0.04802632 -0.15316176 -0.12094161
-0.07436003 -0.13443543 0.047420688 0.13759394 0.062134158 0.13442145 0.12446715 0.0062222476
-0.040372856 0.073948406 0.054414585 0.12497402 -0.0093450425 -0.09289082 0.053398363 -0.12375305
-0.018150745 0.010257605 -0.072168455 -0.102491856 0.1488791 -0.00033938617 -0.052554388 0.064214244
00000000: f6f3 b43d 25b8 943d cf4d c8bd c140 ecbc
00000010: b6ab d93d 2bbb 963d 2948 3ebd e0f6 973d
00000020: c4f1 4f3c 743f b1bd d3e1 a33d 9629 1cbe
00000030: bfb2 efbc 4051 debc d3f9 bbbd 719b 7bbd
00000040: f474 8bbd b87e fb3c c50c 143d 753e 13be
00000050: 0157 e6bc 846e 19bd aa72 d03d 129d bcbc
00000060: 1875 b43c 694a 13be 9ab7 2b3c 7034 25bd
00000070: a509 13be 9ee6 0a3d 78d7 2e3d dfcb 893b
00000080: c244 103e fa71 b03d 0581 813d f893 b23d
00000090: d337 1abc 2d99 afbd e752 fa3c fd43 3fbd
000000a0: d897 3d3d 8004 ab3c 9e66 25be ac32 8abd
000000b0: 7bd1 993d 80a2 b73c e825 40bd baf6 913d
000000c0: 3e09 7dbd 18bb 183e 50e2 193e 2194 09bd
000000d0: b679 063e 0aaa 753d f4e1 be3d d6dc 2a3d
000000e0: bed4 a93d b265 1e3c 25e3 d63d d4e4 923d
000000f0: 0b5d 89bd 77c1 ebbc 0825 c83c 0194 23bd
00000100: 2d99 b6bd 38ed e13d adf8 853d 4105 a23d
00000110: 7269 073e 3462 adbd d1c7 dcbd f81d 1fbe
00000120: 0dd2 0bbd dd16 f8bd 1bf3 e8bd 47a5 e03d
00000130: af87 b3bd 88b0 89bd 4c47 363d 76e1 74bd
00000140: 410e 4ebd 7ad1 693d dc6d 51bd 63d0 e7bd
00000150: 8f1e 07be b99f 9f3d ab55 f53d 079e c23d
00000160: b4e0 183e 892d 5dbd a847 d43d 0307 893d
00000170: 5579 983d d777 fdbd f737 8d3c ce73 1dbe
00000180: 1666 a0bc fc46 1c3d 78f5 45bd 9303 04be
00000190: 39bc cabd af29 bf3d 38b0 90bd 7a43 92bd
000001a0: edce a63d 97b0 97bd 8c42 873c 9f8a 013e
000001b0: 7303 e9bd acc9 d0bc d751 68bd a00e c6bd
000001c0: 31f4 e63d de83 d2bc 648b cabc a744 d9bd
000001d0: c658 ff3d 405a 873d fc9a cabd a041 32bd
000001e0: 85dd 66bd c122 8dbc c4a6 cd3d 286d 47bd
000001f0: 1548 dcbc 32c8 0ebd 1ac8 50bb 9b60 d83d
00000200: 3694 e8bd 76ed 083e 652c 903d ebec 49bd
00000210: f1fd 83bc f3e2 ddbd 343d 8ebc 091c cfbd
00000220: 7186 123d 3b26 0dbd a7e6 0e3d fbc4 62bd
00000230: e4a3 56bd d777 dc3d 29e9 24be 93ac b9bd
00000240: f500 aa3d 6deb 17be dba1 163d f85d bdbc
00000250: 5fdd 40bd 7b48 0d3e d1f4 af3d 3630 b5bc
00000260: 7ab6 c33d 867c afbd 8b13 933d 238b d83d
00000270: 2c9d 643d f80c 1bbb 4095 eebd 4c70 2a3e
00000280: 22d4 893c a790 70bd 48b0 59bd a247 af3d
00000290: e6bd cfbc ac66 213e c730 eab9 9d52 593d
000002a0: f0a1 293d ac2b af3c dc61 9fbd 84bb b8bd
000002b0: 20b3 ddbd b401 07bd 8050 b5bd 0b5e d9bd
000002c0: 3123 063e 8e82 be3d ea4d 27bd 2177 e53d
000002d0: 051f 21be ac9c 7c3d 5eaf 2cbc 62a4 e33d
000002e0: 966e a9bc 01d7 9c3d 6539 113e cf00 453b
000002f0: 5dc4 32bc c815 f9bd 998a d3bd 3055 4a3d
00000300: 4b90 e3bd 261b aa3d c2a4 853c fade f7bd
00000310: cbdd 8e3d 1d6a 09bd cfcf d63d 3408 a5bd
00000320: 0bda febb 51e6 a13c 150d e73d 6efa a43d
00000330: d516 b43d 16d9 023e e92b bd3d 7112 b9bc
00000340: 37f0 32bd 4fdf a43b 474c f53d 5eab 73bd
00000350: 80f8 4cbd 4216 d5bd 5b27 19bd f46e 023e
00000360: 5c90 4bbc d27b 153d 1fa2 fb3c dfb9 15bb
00000370: 722c c2bd 1553 d0bc b883 a5bb 048a b7bd
00000380: 712a 09be 1fb2 813d e444 683d 632c a13d
00000390: 4fa8 f0bd 3fb7 443d 70d6 1cbe 3cb0 f7bd
000003a0: 124a 98bd 71a9 09be 323c 423d 6de5 0c3e
000003b0: 6380 7e3d c7a5 093e a2e8 fe3d ffe3 cb3b
000003c0: 025e 25bd 4372 973d d4e1 5e3d 61f2 ff3d
000003d0: f31b 19bc 8b3d bebd 3eb8 5a3d 3d72 fdbd
000003e0: dfb0 94bc 840f 283c 0ecd 93bd 40e7 d1bd
000003f0: c373 183e a4ef b1b9 4543 57bd c282 833d

lstm.bias_ih_l0 f4 [200]
0.13029127 -0.043134823 -0.019416515 0.023779236 -0.019852139 0.0672121 -0.09561192 0.05509401
-0.07791689 -0.013422071 0.055443577 -0.069836944 -0.060038254 0.035541017 -0.021646712 -0.06117161
0.15607505 0.07533878 -0.013154164 -0.05030289 0.0004807434 0.095013894 0.023335917 0.002230998
0.14227332 0.107532665 0.07465802 0.13484034 0.07657659 0.024888888 -0.10805987 0.16172193
0.10931749 0.09584482 0.04212193 -0.054160986 -0.022482127 -0.042130835 0.0842906 -0.08231192
0.043657202 -0.0523244 0.07778795 -0.09806411 0.08071375 0.043195643 0.054597083 -0.095259875
0.09965601 -0.015443394 0.041114952 0.15589449 0.0010812549 0.10432528 -0.074968666 0.14969456
0.09056805 0.011095159 -0.06630997 0.14611216 0.041536655 -0.07774077 0.07675206 -0.11036539
0.08934849 0.11410528 0.1578687 0.07939073 -0.08886834 -0.07778392 0.021382121 0.029567182
-0.11693681 0.12370989 -0.013234215 0.12690318 0.13718413 0.13633664 -0.05542649 0.03473435
0.13570182 0.07129516 -0.08918089 0.15097353 0.09802906 0.04896572 -0.017388491 -0.047596768
0.13053434 0.12649103 -0.061538257 -0.0010423303 0.13240628 0.07155764 0.024873838 -0.041419156
0.12646176 -0.09823476 0.064247146 0.010374175 0.042300552 0.12868229 -0.0527251 -0.0739878
-0.028365526 -0.10584017 0.032483794 0.089559026 0.005361074 -0.07345779 -0.073457696 -0.1058699
-0.04666407 0.109731086 -0.13766545 0.022853017 0.06138193 0.082596846 0.11736294 -0.11365516
-0.14699481 0.048616745 -0.07380788 0.013141941 0.016454777 -0.1518026 -0.001027855 -0.08870314
-0.09903805 0.054321103 -0.1491854 0.040097985 0.01383536 -0.03398824 0.045920026 0.03849058
0.053692035 0.09020629 -0.032948114 0.04808431 -0.013377049 0.077311076 -0.16031224 -0.06368566
-0.12677786 0.11014051 -0.080193944 0.11222918 0.0057142265 -0.003937622 -0.0042925295 -0.05493026
0.057026524 0.06202707 0.10475774 0.1008271 0.145984 0.05669923 0.04242803 0.08887033
0.11623405 0.043231845 0.00096200086 0.110976525 0.04933236 0.02380202 0.16057181 0.123632796
0.09908786 0.004563056 0.05469235 -0.06052035 0.13898948 0.1347226 0.011056628 -0.016611554
-0.020071182 0.086558014 0.03746293 0.16571146 -0.09579402 -0.05454693 -0.059440825 0.070952944
0.073835485 0.14854327 -0.057960216 -0.06282551 0.1583545 0.041608676 -0.073674925 -0.0810273
-0.09993305 0.12413326 -0.10793253 0.08434562 -0.09355531 0.074684404 0.09875627 0.14452286
00000000: 136b 053e 24ae 30bd 620f 9fbc accc c23c
00000010: f4a0 a2bc 7fa6 893d 2fd0 c3bd 42aa 613d
00000020: e492 9fbd 3fe8 5bbc ce18 633d ac06 8fbd
00000030: acea 75bd 7593 113d 7254 b1bc 158f 7abd
00000040: 23d2 1f3e 384b 9a3d 9084 57bc 670a 4ebd
00000050: 490c fc39 a596 c23d f72a bf3c ef35 123b
00000060: 19b0 113e 163a dc3d 4ee6 983d 9613 0a3e
00000070: 30d4 9c3d c8e3 cb3c 7e4e ddbd 6f9a 253e
00000080: d9e1 df3d 4a4a c43d 0b88 2c3d e9d7 5dbd
00000090: 702c b8bc 6291 2cbd 8da0 ac3d 2793 a8bd
000000a0: e5d1 323d 1c52 56bd 4a4f 9f3d d6d5 c8bd
000000b0: 404d a53d eaed 303d 31a1 5f3d 9c17 c3bd
000000c0: 7318 cc3d 4a06 7dbc 2768 283d cea2 1f3e
000000d0: e5b8 8d3a 7ea8 d53d 2c89 99bd 8849 193e
000000e0: be7b b93d 78c8 353c 86cd 87bd 6d9e 153e
000000f0: 5722 2a3d 8e36 9fbd 2f30 9d3d 4007 e2bd
00000100: 57fc b63d 07b0 e93d 55a8 213e 9b97 a23d
00000110: 9b00 b6bd 2d4d 9fbd 8f29 af3c e036 f23c
00000120: 917c efbd 9c5b fd3d 52d4 58bc e8f2 013e
00000130: ff79 0c3e d59b 0b3e e306 63bd 9b45 0e3d
00000140: 6bf5 0a3e 3203 923d 78a4 b6bd ce98 1a3e
00000150: 76c3 c83d 4790 483d 4f72 8ebc d4f4 42bd
00000160: cbaa 053e dd86 013e 8a0f 7cbd cd9e 88ba
00000170: 8395 073e d08c 923d 38c4 cb3c 22a7 29bd
00000180: 317f 013e 4e2f c9bd 0294 833d 72f8 293c
00000190: 5843 2d3d 4ac5 033e 46f6 57bd ea86 97bd
000001a0: d25e e8bc bbc2 d8bd ba0d 053d b96a b73d
000001b0: f3ab af3b 0a71 96bd fd70 96bd 51d2 d8bd
000001c0: d322 3fbd b1ba e03d 2cf8 0cbe 4036 bb3c
000001d0: 9e6b 7b3d 8928 a93d fb5b f03d 09c4 e8bd
000001e0: cf85 16be 5a22 473d 9628 97bd 4c51 573c
000001f0: 2bcc 863c 2472 1bbe 17b9 86ba fea9 b5bd
00000200: 76d4 cabd ce7f 5e3d 0fc4 18be c93d 243d
00000210: b5ad 623c 4137 0bbd a316 3c3d 4ca8 1d3d
00000220: 2eec 5b3d 13be b83d 9af4 06bd 0ef4 443d
00000230: 692b 5bbc 4555 9e3d e428 24be a16d 82bd
00000240: 0ed2 01be 5991 e13d b93c a4bd 6ad8 e53d
00000250: 683e bb3b 2b07 81bb 59a8 8cbb 8dfe 60bd
00000260: a594 693d 1910 7e3d 3a8b d63d 707e ce3d
00000270: d47c 153e 743d 683d 04c9 2d3d a601 b63d
00000280: 1e0c ee3d e013 313d c92e 7c3a a947 e33d
00000290: bb10 4a3d 74fc c23c f06c 243e 3133 fd3d
000002a0: 93ee ca3d b085 953b 1605 603d 30e4 77bd
000002b0: 4253 0e3e b9f4 093e dc26 353c f414 88bc
000002c0: 526c a4bc 5445 b13d bb72 193d 44b0 293e
000002d0: a82f c4bd 9a6c 5fbd 3978 73bd c74f 913d
000002e0: 0f37 973d ba1b 183e b167 6dbd a9aa 80bd
000002f0: af27 223e dc6d 2a3d e1e2 96bd a4f1 a5bd
00000300: b3a9 ccbd 9439 fe3d bb0b ddbd 65bd ac3d
00000310: ed99 bfbd 23f4 983d ba40 ca3d cdfd 133e

lstm.bias_hh_l0 f4 [200]
0.014547274 0.008287038 0.072415195 0.1352561 0.077975206 -0.11417593 -0.11231856 0.123826444
0.01128713 -0.099605605 0.1164065 0.1315479 0.04418924 0.02265563 -0.07778189 -0.036902882
-0.051387012 0.1680569 0.04726387 0.0007102559 -0.037622698 0.09976294 0.08891347 -0.055010155
-0.07438855 0.032103628 0.08778294 0.15957285 0.047923863 0.061968565 0.12045997 0.15411673
-0.07665912 -0.02247854 0.06973308 0.036766533 -0.0067989384 0.07172955 0.0123576345 -0.08186707
-0.07661772 -0.061458215 0.0439906 0.06182367 -0.0028718754 0.037305832 0.0026716597 -0.025409166
0.11765661 0.0972407 0.12854682 0.09703846 -0.0022796134 0.10919559 0.10031241 0.1589221
-0.07257208 0.01969715 0.060935006 0.1187115 -0.079302326 -0.00042965083 0.026240777 -0.03865364
-0.08116175 0.090183534 0.08362693 -0.03730346 -0.011958669 -0.007602634 0.03608429 -0.09423106
0.12686084 -0.001062006 -0.06819584 0.056339797 0.060506314 0.028196847 -0.057523426 0.03137644
-0.074507564 -0.062616944 0.0058721234 -0.03172899 0.11005166 -0.024369145 -0.07527433 -0.08856091
0.11111786 0.07008316 -0.11003382 0.033685707 0.016901897 -0.08430317 -0.11025494 -0.101010665
-0.042260118 0.117031485 -0.054931063 0.054430537 -0.042459883 0.0058467966 -0.02577626 -0.110861026
0.12897481 0.10146762 0.07607415 -0.036920074 0.047417562 0.106426895 -0.06835553 -0.097041
-0.06536024 -0.10920429 0.083611846 0.008976807 0.14887488 0.11815717 -0.0068444023 -0.0071335896
0.123275705 -0.105296984 0.018629171 -0.11052197 -0.09967798 -0.1424082 0.13776807 0.15587361
-0.09221326 0.031614225 -0.12424447 -0.11770915 -0.020775722 0.06965477 -0.10689953 -0.11801321
-0.12452172 -0.060072854 -0.071951926 -0.037604734 -0.039814528 0.13478468 0.045959625 -0.015441867
0.098694235 0.0026903949 -0.047567625 -0.013270731 -0.09814429 0.07393103 0.0035634078 0.0695589
-0.032673452 -0.05139503 0.12705955 -0.019849943 0.071179375 -0.059526656 0.153678 -0.08840902
0.116216496 -0.09256379 0.0068955333 0.11048133 0.03675935 0.15792418 0.021604396 0.05222337
0.12110574 0.091606624 0.08804064 0.14980944 -0.03576046 -0.10304472 -0.027094329 -0.0126730045
0.052666172 -0.07516898 -0.023519441 -0.038361173 0.15993203 0.13181669 0.09087308 -0.095738694
-0.0628664 -0.01763582 -0.032867525 0.021391084 0.009049286 0.06043973 0.04424027 0.042660415
0.058582343 0.10385573 0.039412145 -0.06257222 0.16300653 -0.021562336 0.12958124 -0.08300162
00000000: b157 6e3c 5bc6 073c 6b4e 943d 9380 0a3e
00000010: 77b1 9f3d 12d5 e9bd 4607 e6bd b898 fd3d
00000020: a8ed 383c 06fe cbbd 8866 ee3d 7eb4 063e
00000030: c7ff 343d 4d98 b93c 1d4c 9fbd 7a27 17bd
00000040: 307b 52bd 1c17 2c3e c297 413d 7730 3a3a
00000050: 421a 1abd 8350 cc3d 4418 b63d 5452 61bd
00000060: 0659 98bd 187f 033d 8bc7 b33d 1167 233e
00000070: d04b 443d c0d2 7d3d b7b3 f63d c7d0 1d3e
00000080: 75ff 9cbd ea24 b8bc 38d0 8e3d 8198 163d
00000090: a1c9 debb f1e6 923d ad77 4a3c eca9 a7bd
000000a0: c0e9 9cbd 9cbb 7bbd 7d2f 343d d13a 7d3d
000000b0: 1336 3cbb 00ce 183d 0317 2f3b e226 d0bc
000000c0: f3f5 f03d 2226 c73d c7a1 033e 1abc c63d
000000d0: 9165 15bb f0a1 df3d 9870 cd3d 7abc 223e
000000e0: aca0 94bd eb5b a13c fc96 793d 041f f33d
000000f0: 4269 a2bd c242 e1b9 e6f6 d63c 4753 1ebd
00000100: 2238 a6bd 25b2 b83d 9944 ab3d 83cb 18bd
00000110: 4bee 43bc 841f f9bb 1fcd 133d 37fc c0bd
00000120: cfe7 013e 0233 8bba 43aa 8bbd 8fc4 663d
00000130: 78d5 773d 13fd e63c af9d 6bbd 9584 003d
00000140: 6c97 98bd 503d 80bd f16a c03b 42f6 01bd
00000150: c462 e13d cda1 c7bc 6e29 9abd 6c5f b5bd
00000160: c391 e33d c387 8f3d 6959 e1bd 06fa 093d
00000170: d975 8a3c 24a7 acbd 58cd e1bd aede cebd
00000180: f218 2dbd 34ae ef3d 65ff 60bd 8ef2 5e3d
00000190: 6aea 2dbd 7c96 bf3b bc28 d3bc 1b0b e3bd
000001a0: f911 043e 41ce cf3d c4cc 9b3d 8139 17bd
000001b0: eb38 423d 58f6 d93d fcfd 8bbd 6fbd c6bd
000001c0: 97db 85bd 80a6 dfbd b03c ab3d 7513 133c
000001d0: a872 183e 63fc f13d 0247 e0bb e3c0 e9bb
000001e0: f977 fc3d f2a5 d7bd 349c 983c 5859 e2bd
000001f0: f823 ccbd 75d3 11be 1313 0d3e 559d 1f3e
00000200: 4eda bcbd eb7d 013d e273 febd 7f11 f1bd
00000210: d931 aabc 29a7 8e3d 24ee dabd e9b0 f1bd
00000220: 3e05 ffbd f40e 76bd 885b 93bd 6c07 1abd
00000230: 8f14 23bd ff04 0a3e 2940 3c3d e2ff 7cbc
00000240: 3420 ca3d 5651 303b 45d6 42bd 7b6d 59bc
00000250: e0ff c8bd 2769 973d 1088 693b e674 8e3d
00000260: 99d4 05bd 9883 52bd e61b 023e 599c a2bc
00000270: 7ec6 913d 39d2 73bd c45d 1d3e ca0f b5bd
00000280: ea02 ee3d 1692 bdbd edf3 e13b 0944 e23d
00000290: f990 163d e0b6 213e b4fb b03c 2ce8 553d
000002a0: 4906 f83d 419c bb3d a74e b43d a567 193e
000002b0: 8f79 12bd 1c09 d3bd edf4 ddbc 6fa2 4fbc
000002c0: 7cb8 573d 32f2 99bd d8ab c0bc 9b20 1dbd
000002d0: 39c5 233e f4fa 063e aa1b ba3d a612 c4bd
000002e0: 19c0 80bd ff78 90bc 19a0 06bd 5b3c af3c
000002f0: 7543 143c a68f 773d 4935 353d b0bc 2e3d
00000300: 0af4 6f3d 50b2 d43d a16e 213d dd25 80bd
00000310: 2feb 263e 7fa3 b0bc f2b0 043e c1fc a9bd

linear.weight f4 [2, 50]
-0.14078158 -0.040144183 -0.16363803 0.1632947 0.15617539 -0.038489964 0.08651567 0.08287597
-0.14825219 0.09646356 0.0033971309 -0.15969416 0.041909862 -0.06439381 -0.17770603 -0.017961875
0.009457712 -0.009098427 0.0100194095 -0.035070408 0.087515235 -0.0010003599 -0.060685884 0.11003485
0.11925241 0.014158032 0.16283898 0.12779288 0.018966142 -0.14377446 -0.038069725 0.032649674
-0.17168713 -0.017396513 0.07891508 -0.119321205 -0.031199567 0.044375293 0.104994334 -0.057079285
0.1419124 0.16039391 0.013273119 -0.12433274 -0.16954565 0.12202984 -0.10373615 -0.096564285
0.16804858 0.05989948 0.17990896 0.14743026 -0.053747654 -0.16240703 -0.16816135 0.15043733
-0.11841157 0.1027179 0.11219475 -0.107910894 -0.013428718 0.049419 -0.053809997 -0.0062594325
0.083876036 -0.109200865 -0.09862371 0.18620294 -0.103823 -0.12677646 0.16197215 -0.12897725
-0.15362252 -0.14954467 -0.058519766 0.13842654 0.076875485 -0.1554719 -0.13578191 0.1477423
-0.10427877 -0.18276976 -0.032271087 -0.15514418 -0.15664442 -0.012746215 0.06902976 0.13945942
0.03336442 -0.17343612 -0.16955033 -0.044749003 -0.10142655 0.048683636 0.058538523 0.039680593
0.16715173 0.16404822 -0.07001956 0.1590337
00000000: 0c29 10be 3a6e 24bd ba90 27be ba36 273e
00000010: 71ec 1f3e a7a7 1dbd 212f b13d e0ba a93d
00000020: 6ccf 17be b08e c53d 66a2 5e3b de86 23be
00000030: ada9 2b3d e7e0 83bd 92f8 35be c824 93bc
00000040: 85f4 1a3c 9211 15bc 7328 243c fda5 0fbd
00000050: 303b b33d 821e 83ba c391 78bd f459 e13d
00000060: 9c3a f43d 17f7 673c 43bf 263e 23dc 023e
00000070: e25e 9b3c 9d39 13be 00ef 1bbd aabb 053d
00000080: c0ce 2fbe 2283 8ebc 3b9e a13d ad5e f4bd
00000090: 3c96 ffbc dec2 353d 4507 d73d f8cb 69bd
000000a0: 7c51 113e 4d3e 243e 7f77 593c 2aa2 febd
000000b0: 609d 2dbe c8ea f93d 9e73 d4bd 7fc3 c5bd
000000c0: ed14 2c3e 2859 753d 0e3a 383e f5f7 163e
000000d0: 8026 5cbd 074e 26be 7d32 2cbe 3e0c 1a3e
000000e0: c481 f2bd c35d d23d 5cc6 e53d 6300 ddbd
000000f0: 2004 5cbc 946b 4a3d df67 5cbd ed1b cdbb
00000100: 33c7 ab3d b4a4 dfbd 3afb c9bd fcab 3e3e
00000110: 27a1 d4bd b0d1 01be 07dc 253e 9d12 04be
00000120: 394f 1dbe 3d22 19be 6cb2 6fbd b0bf 0d3e
00000130: e570 9d3d 0734 1fbe 6a0a 0bbe c249 173e
00000140: 1c90 d5bd ff27 3bbe b02e 04bd 1ede 1ebe
00000150: 6567 20be 80d5 50bc 7a5f 8d3d 73ce 0e3e
00000160: 21a9 083d 3d99 31be 9a9e 2dbe bb4a 37bd
00000170: b9b8 cfbd 7e68 473d 17c6 6f3d 1e88 223d
00000180: d329 2b3e 42fc 273e 6a66 8fbd bbd9 223e

linear.bias f4 [2]
0.08422948 0.008453416
00000000: 8180 ac3d 3280 0a3c

exp_avg f4 [200, 84]
-2.4947873e-05 -5.158382e-05 1.5641134e-12 0.0 -2.3232615e-05 -4.728321e-05 5.41694e-07 0.0
-2.240067e-05 -4.248684e-05 1.2808443e-06 0.0 -2.2680675e-05 -3.8399186e-05 1.9555875e-06 0.0
-2.3451106e-05 -3.5502595e-05 2.5873014e-06 0.0 -2.3543224e-05 -4.172662e-05 2.5151421e-06 0.0
-2.4374785e-05 -3.7540667e-05 3.821032e-06 0.0 -2.4612737e-05 -3.677569e-05 4.464377e-06 0.0
-2.4690136e-05 -3.64591e-05 4.8170978e-06 0.0 -2.5346677e-05 -4.301311e-05 2.9400292e-06 0.0
-2.6089861e-05 -3.8983984e-05 3.981181e-06 0.0 -2.6237249e-05 -3.8180064e-05 4.3088276e-06 0.0
-2.6232867e-05 -3.78492e-05 4.584494e-06 0.0 -2.7106518e-05 -4.4645054e-05 3.3200604e-06 0.0
-2.773005e-05 -4.1110383e-05 4.28516e-06 0.0 -2.774213e-05 -4.045933e-05 4.306091e-06 0.0
-2.7565191e-05 -4.025205e-05 4.343413e-06 0.0 -2.8710781e-05 -4.6396864e-05 3.7001246e-06 0.0
-2.9254374e-05 -4.3647575e-05 4.490474e-06 0.0 -2.9210638e-05 -4.3351516e-05 4.384874e-06 0.0
-2.9087725e-05 -4.3398893e-05 4.2602956e-06 0.0 -1.8007679e-05 -3.7524773e-05 2.3165363e-12 0.0
-1.6610824e-05 -3.4408164e-05 3.9578708e-07 0.0 -1.588268e-05 -3.093769e-05 9.377657e-07 0.0
-1.6032383e-05 -2.7978227e-05 1.4323566e-06 0.0 -1.658556e-05 -2.5907246e-05 1.8904726e-06 0.0
-1.6754408e-05 -3.0403287e-05 1.8239862e-06 0.0 -1.7264272e-05 -2.7416947e-05 2.7585043e-06 0.0
-1.7365444e-05 -2.6953076e-05 3.2161001e-06 0.0 -1.7360515e-05 -2.6803842e-05 3.4659759e-06 0.0
-1.815187e-05 -3.1318454e-05 2.1251105e-06 0.0 -1.8587632e-05 -2.8483659e-05 2.8584968e-06 0.0
-1.8622526e-05 -2.8000932e-05 3.0740714e-06 0.0 -1.856067e-05 -2.7847791e-05 3.261972e-06 0.0
-1.9526582e-05 -3.2466294e-05 2.3934583e-06 0.0 -1.9883946e-05 -2.9947925e-05 3.06968e-06 0.0
-1.9834722e-05 -2.9548884e-05 3.054713e-06 0.0 -1.965539e-05 -2.9468807e-05 3.0654805e-06 0.0
-2.0784668e-05 -3.3682692e-05 2.6636903e-06 0.0 -2.1117514e-05 -3.1667936e-05 3.2116377e-06 0.0
-2.104068e-05 -3.149624e-05 3.10723e-06 0.0 -2.0912088e-05 -3.158199e-05 2.9986277e-06 0.0
-1.1087049e-05 -2.2746484e-05 -7.7975896e-13 0.0 -1.044125e-05 -2.0805144e-05 3.1651157e-07 0.0
-1.0019613e-05 -1.8617488e-05 6.78536e-07 0.0 -1.00375255e-05 -1.6754937e-05 1.0052245e-06 0.0
-1.0292228e-05 -1.5365882e-05 1.3243105e-06 0.0 -1.0196181e-05 -1.837038e-05 1.2340503e-06 0.0
-1.0332176e-05 -1.6420105e-05 1.8766442e-06 0.0 -1.032731e-05 -1.5908621e-05 2.2072963e-06 0.0
-1.02750455e-05 -1.5603342e-05 2.4027718e-06 0.0 -1.0863743e-05 -1.8981891e-05 1.4318376e-06 0.0
-1.0953276e-05 -1.714401e-05 1.9819108e-06 0.0 -1.0891993e-05 -1.6634749e-05 2.1894648e-06 0.0
-1.0776235e-05 -1.6325768e-05 2.353631e-06 0.0 -1.1568339e-05 -1.977867e-05 1.6165648e-06 0.0
-1.16096635e-05 -1.822154e-05 2.1335609e-06 0.0 -1.1492285e-05 -1.78237e-05 2.2016966e-06 0.0
-1.1307097e-05 -1.7582943e-05 2.2576385e-06 0.0 -1.2252442e-05 -2.0642014e-05 1.806034e-06 0.0
-1.2303877e-05 -1.9510595e-05 2.2422655e-06 0.0 -1.2190619e-05 -1.9336338e-05 2.2484348e-06 0.0
-1.2045899e-05 -1.9277872e-05 2.2327413e-06 0.0 -3.4138815e-05 -7.412597e-05 1.25641875e-11 0.0
00000000: 2647 d1b7 b45b 58b8 2021 dc2b 0000 0000
00000010: a9e3 c2b7 f651 46b8 ee68 1135 0000 0000
00000020: 13e9 bbb7 e633 32b8 7ae9 ab35 0000 0000
00000030: 6142 beb7 d00e 21b8 bd3c 0336 0000 0000
00000040: deb8 c4b7 9fe8 14b8 80a1 2d36 0000 0000
00000050: b07e c5b7 9e03 2fb8 d0c9 2836 0000 0000
00000060: 7478 ccb7 fc74 1db8 6a36 8036 0000 0000
00000070: 7377 ceb7 993f 1ab8 b5cc 9536 0000 0000
00000080: aa1d cfb7 a9eb 18b8 8ea2 a136 0000 0000
00000090: 939f d4b7 fa68 34b8 514d 4536 0000 0000
000000a0: 8ddb dab7 bc82 23b8 1696 8536 0000 0000
000000b0: 1018 dcb7 8823 20b8 8c94 9036 0000 0000
000000c0: a70e dcb7 45c0 1eb8 81d4 9936 0000 0000
000000d0: ce62 e3b7 4341 3bb8 34ce 5e36 0000 0000
000000e0: d49d e8b7 f06d 2cb8 3ec9 8f36 0000 0000
000000f0: c5b7 e8b7 e0b2 29b8 0a7d 9036 0000 0000
00000100: cc3b e7b7 4fd4 28b8 a2bd 9136 0000 0000
00000110: efd7 f0b7 419a 42b8 a84f 7836 0000 0000
00000120: 4a67 f5b7 3a12 37b8 e1ac 9636 0000 0000
00000130: 5e09 f5b7 56d4 35b8 c821 9336 0000 0000
00000140: 6a01 f4b7 3507 36b8 a9f3 8e36 0000 0000
00000150: 320f 97b7 eb63 1db8 0203 232c 0000 0000
00000160: 7957 8bb7 7c51 10b8 907c d434 0000 0000
00000170: cc3b 85b7 17c3 01b8 c5ba 7b35 0000 0000
00000180: 487d 86b7 c9b2 eab7 663f c035 0000 0000
00000190: 3821 8bb7 6353 d9b7 25bc fd35 0000 0000
000001a0: d18b 8cb7 900a ffb7 b0cf f435 0000 0000
000001b0: bed2 90b7 72fd e5b7 be1e 3936 0000 0000
000001c0: 02ac 91b7 4a19 e2b7 2ed4 5736 0000 0000
000001d0: 6ca1 91b7 d0d8 e0b7 0399 6836 0000 0000
000001e0: d844 98b7 ef5b 03b8 1f9d 0e36 0000 0000
000001f0: a3ec 9bb7 31f0 eeb7 9ad4 3f36 0000 0000
00000200: 9237 9cb7 8be3 eab7 254c 4e36 0000 0000
00000210: bcb2 9bb7 ad9a e9b7 41e8 5a36 0000 0000
00000220: 04cd a3b7 6b2c 08b8 4d9f 2036 0000 0000
00000230: 73cc a6b7 ae38 fbb7 b300 4e36 0000 0000
00000240: be62 a6b7 bfdf f7b7 92ff 4c36 0000 0000
00000250: a1e1 a4b7 c833 f7b7 8eb8 4d36 0000 0000
00000260: bc5a aeb7 8446 0db8 dac1 3236 0000 0000
00000270: 8425 b1b7 30d3 04b8 8487 5736 0000 0000
00000280: 8480 b0b7 d51a 04b8 ce85 5036 0000 0000
00000290: 5e6c afb7 e776 04b8 083c 4936 0000 0000
000002a0: 8302 3ab7 b4cf beb7 8e7b 5bab 0000 0000
000002b0: d42c 2fb7 b586 aeb7 05ed a934 0000 0000
000002c0: e919 28b7 c02c 9cb7 a424 3635 0000 0000
000002d0: d866 28b7 f48c 8cb7 40eb 8635 0000 0000
000002e0: c8ac 2cb7 fbe5 80b7 f6be b135 0000 0000
000002f0: 4410 2bb7 171a 9ab7 a5a1 a535 0000 0000
00000300: 5c58 2db7 e8bd 89b7 01e1 fb35 0000 0000
00000310: 7543 2db7 8173 85b7 1021 1436 0000 0000
00000320: fc62 2cb7 ece3 82b7 4e3f 2136 0000 0000
00000330: 6c43 36b7 4d3b 9fb7 912d c035 0000 0000
00000340: f6c3 37b7 7bd0 8fb7 f800 0536 0000 0000
00000350: c1bc 36b7 da8a 8bb7 b8ee 1236 0000 0000
00000360: 94cb 34b7 52f3 88b7 13f3 1d36 0000 0000
00000370: a315 42b7 5fea a5b7 bef8 d835 0000 0000
00000380: 20c7 42b7 76da 98b7 4c2e 0f36 0000 0000
00000390: fdce 40b7 1b84 95b7 dcc0 1336 0000 0000
000003a0: 9db3 3db7 157f 93b7 ef81 1736 0000 0000
000003b0: d68f 4db7 6328 adb7 db66 f235 0000 0000
000003c0: c06c 4eb7 afaa a3b7 d479 1636 0000 0000
000003d0: 4f86 4cb7 7834 a2b7 d1e3 1636 0000 0000
000003e0: be18 4ab7 eab6 a1b7 34d6 1536 0000 0000
000003f0: 4630 0fb8 1474 9bb8 1208 5d2d 0000 0000

exp_avg_sq f4 [200, 84]
9.888975e-08 2.4324797e-07 2.5675588e-19 0.0 1.3501949e-07 1.8781162e-07 8.112857e-11 0.0
1.7201562e-07 1.464251e-07 3.0658004e-10 0.0 1.9003757e-07 1.2143981e-07 6.348333e-10 0.0
1.9120371e-07 9.443857e-08 1.2846334e-09 0.0 1.7105486e-07 1.5324616e-07 1.5238282e-09 0.0
2.0258474e-07 1.2986843e-07 3.9229318e-09 0.0 2.3207468e-07 1.0119153e-07 6.1034933e-09 0.0
2.5828984e-07 7.8839804e-08 7.930969e-09 0.0 1.5406148e-07 1.8594493e-07 2.286933e-09 0.0
1.9002923e-07 1.6943311e-07 5.3074425e-09 0.0 2.1898451e-07 1.421046e-07 7.753963e-09 0.0
2.4195506e-07 1.18922884e-07 9.785434e-09 0.0 1.3645399e-07 2.3021273e-07 3.200155e-09 0.0
1.6982202e-07 2.3155097e-07 6.778101e-09 0.0 1.947339e-07 2.1119564e-07 9.585372e-09 0.0
2.1375774e-07 1.8835894e-07 1.1607579e-08 0.0 1.2132699e-07 2.816111e-07 4.2336894e-09 0.0
1.4652325e-07 3.0642872e-07 7.853362e-09 0.0 1.6721792e-07 2.981577e-07 1.0353078e-08 0.0
1.8464478e-07 2.826576e-07 1.2265227e-08 0.0 7.130524e-09 3.472417e-08 1.0469485e-20 0.0
6.50231e-09 2.9662155e-08 4.4925487e-12 0.0 6.882688e-09 2.4432476e-08 1.841302e-11 0.0
7.35971e-09 2.01863e-08 4.2685504e-11 0.0 7.650885e-09 1.786161e-08 7.584274e-11 0.0
7.08957e-09 2.3883231e-08 7.450726e-11 0.0 7.828734e-09 1.9792296e-08 1.7217833e-10 0.0
8.261532e-09 2.0312227e-08 2.4288957e-10 0.0 8.591941e-09 2.1477897e-08 2.9826036e-10 0.0
7.682959e-09 2.481841e-08 1.0316033e-10 0.0 8.344849e-09 2.0742386e-08 1.9938393e-10 0.0
8.617154e-09 2.1029384e-08 2.6974062e-10 0.0 8.764027e-09 2.2029191e-08 3.431647e-10 0.0
8.740861e-09 2.586436e-08 1.3428615e-10 0.0 9.292309e-09 2.1689447e-08 2.4523686e-10 0.0
9.397597e-09 2.1529866e-08 3.1667108e-10 0.0 9.357935e-09 2.2084128e-08 3.885206e-10 0.0
1.0127288e-08 2.6992698e-08 1.7082745e-10 0.0 1.0593387e-08 2.3255211e-08 2.8199493e-10 0.0
1.0554427e-08 2.3081457e-08 3.4270975e-10 0.0 1.0476738e-08 2.3421414e-08 4.0642256e-10 0.0
6.436408e-08 2.0407751e-07 3.759185e-20 0.0 7.173752e-08 1.6425155e-07 4.3106338e-11 0.0
8.045856e-08 1.290986e-07 1.8693178e-10 0.0 8.6654836e-08 1.0463352e-07 4.0762288e-10 0.0
8.979117e-08 8.52675e-08 7.640317e-10 0.0 8.2327254e-08 1.2623376e-07 7.874353e-10 0.0
9.348863e-08 1.0166772e-07 1.9349085e-09 0.0 1.0147839e-07 8.930132e-08 2.8527138e-09 0.0
1.07886635e-07 7.994265e-08 3.564569e-09 0.0 8.175386e-08 1.4221105e-07 1.1459743e-09 0.0
9.307911e-08 1.1985321e-07 2.41724e-09 0.0 1.0034003e-07 1.08042634e-07 3.2864187e-09 0.0
1.0540116e-07 9.8792306e-08 4.03082e-09 0.0 8.0723815e-08 1.642618e-07 1.5533715e-09 0.0
9.098531e-08 1.4937491e-07 3.0018863e-09 0.0 9.689626e-08 1.4101705e-07 3.781383e-09 0.0
1.0057335e-07 1.3314305e-07 4.357186e-09 0.0 7.990484e-08 1.9003734e-07 2.016709e-09 0.0
8.792902e-08 1.8566463e-07 3.43976e-09 0.0 9.2931586e-08 1.8296451e-07 4.047537e-09 0.0
9.667334e-08 1.792228e-07 4.4693915e-09 0.0 9.738105e-08 1.4984512e-07 8.3839915e-19 0.0
00000000: 375d d433 bf97 8234 da8f 9720 0000 0000
00000010: e0f9 1034 44a9 4934 5367 b22e 0000 0000
00000020: 4bb3 3834 0639 1d34 4e8b a82f 0000 0000
00000030: 210d 4c34 1f65 0234 6c80 2e30 0000 0000
00000040: ad4d 4d34 27ce ca33 058f b030 0000 0000
00000050: 34ab 3734 fc8b 2434 f06e d130 0000 0000
00000060: 1286 5934 f671 0b34 79ca 8631 0000 0000
00000070: 3430 7934 a24e d933 e5b6 d131 0000 0000
00000080: 16ab 8a34 a44e a933 c540 0832 0000 0000
00000090: 196c 2534 27a8 4734 2728 1d31 0000 0000
000000a0: d60a 4c34 6bed 3534 c25c b631 0000 0000
000000b0: 0122 6b34 6a95 1834 4a36 0532 0000 0000
000000c0: 0de6 8134 8c62 ff33 cb1c 2832 0000 0000
000000d0: 3084 1234 6530 7734 b9e9 5b31 0000 0000
000000e0: 5258 3634 3fa0 7834 cfe4 e831 0000 0000
000000f0: 0c18 5134 04c5 6234 e9ac 2432 0000 0000
00000100: 4885 6534 b63f 4a34 ac6a 4732 0000 0000
00000110: 1c46 0234 5630 9734 ed77 9131 0000 0000
00000120: 0154 1d34 3e83 a434 74eb 0632 0000 0000
00000130: 838c 3334 7b12 a034 52dd 3132 0000 0000
00000140: c542 4634 2ac0 9734 0ab7 5232 0000 0000
00000150: c100 f531 a123 1533 53c3 451e 0000 0000
00000160: ec6a df31 c5cb fe32 4811 9e2c 0000 0000
00000170: c47c ec31 95df d132 6ff6 a12d 0000 0000
00000180: b2e0 fc31 2566 ad32 9bbb 3b2e 0000 0000
00000190: f370 0332 196e 9932 abc7 a62e 0000 0000
000001a0: 8498 f331 c827 cd32 dcd7 a32e 0000 0000
000001b0: 237f 0632 b803 aa32 e44f 3d2f 0000 0000
000001c0: 9aee 0d32 0f7b ae32 ab87 852f 0000 0000
000001d0: c29b 1332 657e b832 6af8 a32f 0000 0000
000001e0: 03fe 0332 4330 d532 1ada e22e 0000 0000
000001f0: 095d 0f32 fd2c b232 9639 5b2f 0000 0000
00000200: a50a 1432 1ba4 b432 9e4a 942f 0000 0000
00000210: 9990 1632 b43a bd32 23a8 bc2f 0000 0000
00000220: b72a 1632 542c de32 31a6 132f 0000 0000
00000230: 02a4 1f32 994f ba32 05d2 862f 0000 0000
00000240: 1273 2132 adf0 b832 7e17 ae2f 0000 0000
00000250: a2c4 2032 83b3 bd32 6a97 d52f 0000 0000
00000260: 49fc 2d32 92dd e732 a7d3 3b2f 0000 0000
00000270: 35fe 3532 c0c2 c732 4207 9b2f 0000 0000
00000280: dc52 3532 a944 c632 1c68 bc2f 0000 0000
00000290: 2efd 3332 3c30 c932 e46e df2f 0000 0000
000002a0: 8738 8a33 6620 5b34 c285 311f 0000 0000
000002b0: 1e0e 9a33 1f5d 3034 6c95 3d2e 0000 0000
000002c0: 90c8 ac33 5a9e 0a34 9e88 4d2f 0000 0000
000002d0: 0017 ba33 e3b2 e033 d217 e02f 0000 0000
000002e0: 38d3 c033 4e1c b733 f403 5230 0000 0000
000002f0: e3cb b033 df8a 0734 d572 5830 0000 0000
00000300: ebc3 c833 6c54 da33 45f7 0431 0000 0000
00000310: 56ec d933 ebc5 bf33 7909 4431 0000 0000
00000320: 4eaf e733 f0ac ab33 90f4 7431 0000 0000
00000330: a990 af33 adb2 1834 6380 9d30 0000 0000
00000340: c8e2 c733 00b1 0034 891c 2631 0000 0000
00000350: 847a d733 1105 e833 4ad7 6131 0000 0000
00000360: e758 e233 a527 d433 787f 8a31 0000 0000
00000370: 635a ad33 f15f 3034 677e d530 0000 0000
00000380: b463 c333 dd63 2034 be49 4e31 0000 0000
00000390: 4815 d033 796a 1734 66ed 8131 0000 0000
000003a0: c9fa d733 15f6 0e34 37b6 9531 0000 0000
000003b0: 2698 ab33 110d 4c34 5296 0a31 0000 0000
000003c0: 7dd3 bc33 1b5b 4734 e660 6c31 0000 0000
000003d0: ae91 c733 e774 4434 8312 8b31 0000 0000
000003e0: bb9a cf33 6370 4034 2f91 9931 0000 0000
000003f0: cc1f d133 1de5 2034 a673 7721 0000 0000

exp_avg f4 [200, 50]
1.05990985e-05 1.2860648e-05 8.8596125e-06 -4.9465166e-06 -8.559676e-06 1.2804202e-05 -1.8353283e-05 1.7574495e-05
-6.8533386e-06 -3.54886e-05 -1.69214e-05 3.6202924e-05 -4.0963405e-05 3.5292625e-05 1.3363993e-05 -3.8739687e-05
-1.1249511e-05 3.5191417e-05 -2.360559e-05 -1.9234742e-05 1.9182631e-05 1.3055817e-05 1.3051159e-05 -1.8736957e-05
-1.9881098e-05 3.917319e-05 -2.9958483e-05 -2.873072e-05 6.0610764e-06 2.4863617e-05 4.3625918e-05 -4.072197e-06
2.6799135e-06 -1.8530327e-05 -2.472972e-05 6.347569e-06 2.5022453e-05 1.8762084e-05 -1.8721317e-05 -1.3381143e-05
-3.095977e-05 -2.4950632e-05 3.134939e-05 2.022419e-05 3.5251447e-05 3.5981593e-06 2.3425886e-05 4.005883e-05
-2.6336293e-05 8.785456e-06 9.04257e-06 1.0452207e-05 7.3644633e-06 -4.9982445e-06 -7.69752e-06 1.0085221e-05
-1.4642275e-05 1.328525e-05 -3.8167123e-06 -2.6188556e-05 -1.2932534e-05 2.6655604e-05 -2.997355e-05 2.6134709e-05
1.1076848e-05 -2.879331e-05 -8.820255e-06 2.5717954e-05 -1.8052875e-05 -1.4710612e-05 1.49083735e-05 9.504483e-06
8.592561e-06 -1.5071582e-05 -1.5624853e-05 2.8612474e-05 -2.2794826e-05 -2.2251086e-05 4.3656996e-06 1.9006091e-05
3.1206735e-05 -4.2688307e-06 2.8884053e-06 -1.42057515e-05 -1.9694262e-05 5.8578316e-06 1.9102865e-05 1.4660763e-05
-1.4284724e-05 -1.0188149e-05 -2.2836703e-05 -1.9259267e-05 2.2326574e-05 1.5742915e-05 2.610564e-05 1.7611331e-06
1.7707634e-05 2.9212153e-05 -2.0155574e-05 7.646655e-06 7.0557144e-06 7.967714e-06 5.7601146e-06 -4.8413744e-06
-6.5229483e-06 7.3699116e-06 -1.0576283e-05 9.468877e-06 -1.044231e-06 -1.6831771e-05 -8.871849e-06 1.6889471e-05
-1.8766475e-05 1.6687092e-05 8.298758e-06 -1.8163026e-05 -7.051843e-06 1.6379869e-05 -1.2380861e-05 -1.0398383e-05
1.0358431e-05 4.339684e-06 3.9723795e-06 -1.1290611e-05 -1.0901923e-05 1.8161256e-05 -1.5253669e-05 -1.5193926e-05
1.1850126e-06 1.2491019e-05 1.833626e-05 -4.2362894e-06 3.4017446e-06 -9.789999e-06 -1.3964724e-05 5.1365973e-06
1.2904924e-05 1.0296743e-05 -9.858846e-06 -7.72455e-06 -1.4845198e-05 -1.3321018e-05 1.276682e-05 1.0925985e-05
1.6684633e-05 -5.372341e-08 1.223073e-05 1.8349137e-05 -1.4077557e-05 6.4350024e-06 3.874087e-05 4.316782e-05
3.7695783e-05 -3.0018024e-05 -3.606096e-05 4.2933552e-05 -5.2203704e-05 4.9443242e-05 7.568839e-06 -6.956383e-05
-4.8422065e-05 6.7560264e-05 -7.4528405e-05 6.694845e-05 4.487477e-05 -7.120708e-05 -4.278367e-05 7.243956e-05
-5.8406073e-05 -5.5923105e-05 5.690703e-05 1.5151973e-06 5.522627e-07 -5.5577708e-05 -5.5938395e-05 7.208449e-05
-6.46384e-05 -6.7410045e-05 -9.165603e-06 6.5856344e-05 5.8936275e-05 -2.7014925e-05 2.566557e-05 -5.1842537e-05
-6.461456e-05 3.3695644e-05 6.2291714e-05 5.3534826e-05 -5.136712e-05 -4.528116e-05 -6.500753e-05 -6.4889726e-05
3.7611233e-05 5.526473e-05 7.023551e-05 -1.3144494e-05 6.22708e-05 7.40267e-05 -6.755877e-05 3.7716058e-05
9.019562e-06 1.1380369e-05 6.179639e-06 -9.911179e-07 -5.5597247e-06 1.2213085e-05 -1.9937765e-05 1.9333698e-05
-1.5080298e-05 -4.7169844e-05 -1.8299643e-05 4.9242786e-05 -5.6309644e-05 4.7669968e-05 1.2581509e-05 -5.265624e-05
-9.6006315e-06 4.6007077e-05 -2.8178469e-05 -2.0934898e-05 2.0327328e-05 2.4243416e-05 2.4557949e-05 -1.9654088e-05
-2.196384e-05 5.3690932e-05 -3.8396403e-05 -3.4530032e-05 1.3827063e-05 2.8140825e-05 6.61042e-05 3.210324e-08
-1.8761594e-06 -2.04856e-05 -2.8001006e-05 2.5575196e-06 2.9593755e-05 2.053504e-05 -2.0994286e-05 -1.2643159e-05
-4.036836e-05 -2.8879442e-05 4.8955048e-05 2.24389e-05 4.6614226e-05 1.0774245e-05 2.6819818e-05 5.4739754e-05
-3.066104e-05 6.041542e-06 1.9370962e-06 3.820352e-06 -2.839718e-06 5.5824776e-06 1.0268475e-06 3.4333361e-06
00000000: c8d2 3137 10c4 5737 bfa3 1437 41fa a5b6
00000010: 879b 0fb7 a1d1 5637 60f5 99b7 f16c 9337
00000020: bbf5 e5b6 98d9 14b8 6ef2 8db7 98d8 1738
00000030: 1fd0 2bb8 2b07 1438 ea35 6037 6c7c 22b8
00000040: 48bc 3cb7 7f9a 1338 9e04 c6b7 4b5a a1b7
00000050: 63ea a037 4f0a 5b37 4df6 5a37 4f2d 9db7
00000060: 55c6 a6b7 e44d 2438 5a4f fbb7 c002 f1b7
00000070: 4060 cb36 3692 d037 f9fa 3638 e8a3 88b6
00000080: 90d8 3336 9371 9bb7 ab72 cfb7 34fd d436
00000090: 4fe7 d137 4563 9d37 b90b 9db7 927f 60b7
000000a0: cdda 01b8 134d d1b7 277d 0338 1ea7 a937
000000b0: f4da 1338 e877 7136 b582 c437 d704 2838
000000c0: c2ec dcb7 3f65 1337 8bb5 1737 e35b 2f37
000000d0: 421c f736 98b6 a7b6 9924 01b7 b233 2937
000000e0: 18a8 75b7 b7e3 5e37 4f11 80b6 7faf dbb7
000000f0: d0f8 58b7 799a df37 b56f fbb7 dc3b db37
00000100: b3d6 3937 2a89 f1b7 b5fa 13b7 e3bc d737
00000110: 4170 97b7 99cd 76b7 fa1e 7a37 7275 1f37
00000120: c528 1037 f4db 7cb7 1e12 83b7 d204 f037
00000130: 8437 bfb7 d8a7 bab7 137d 9236 456f 9f37
00000140: fae3 0238 fa3c 8fb6 6dd6 4136 3d55 6eb7
00000150: 1b35 a5b7 648e c436 173f a037 7ff7 7537
00000160: 6ca8 6fb7 c4ed 2ab7 7291 bfb7 f68e a1b7
00000170: f449 bb37 a70f 8437 6ffd da37 1360 ec35
00000180: db8a 9437 9f0c f537 c413 a9b7 224a 0037
00000190: 20c0 ec36 12ad 0537 0247 c136 1773 a2b6
000001a0: b3df dab6 0f4b f736 ca70 31b7 84dc 1e37
000001b0: 8127 8cb5 f431 8db7 4dd8 14b7 ddad 8d37
000001c0: b36c 9db7 42fb 8b37 e53a 0b37 cd5c 98b7
000001d0: df9e ecb6 8067 8937 65b7 4fb7 b774 2eb7
000001e0: 1fc9 2d37 9a9d 9136 7b4a 8536 ce6c 3db7
000001f0: 67e7 36b7 0059 9837 02ea 7fb7 6ae9 7eb7
00000200: b90c 9f35 8590 5137 d2d0 9937 7325 8eb6
00000210: 8749 6436 ba3f 24b7 084a 6ab7 095b ac36
00000220: 3a82 5837 2dc0 2c37 6c67 25b7 b198 01b7
00000230: a40f 79b7 567d 5fb7 1331 5637 c04e 3737
00000240: faf5 8b37 84bd 66b3 9632 4d37 79ec 9937
00000250: a62e 6cb7 40ec d736 b17d 2238 180f 3538
00000260: 8a1b 1e38 37cf fbb7 2940 17b8 8d13 3438
00000270: 4df5 5ab8 4761 4f38 d5f7 fd36 cce2 91b8
00000280: cc18 4bb8 24af 8d38 224c 9cb8 ad66 8c38
00000290: eb37 3c38 0355 95b8 9e72 33b8 b1ea 9738
000002a0: 0bf9 74b8 fa8e 6ab8 75af 6e38 c85d cb35
000002b0: 343f 1435 1c1c 69b8 659f 6ab8 112c 9738
000002c0: 7a8e 87b8 7e5e 8db8 f7c5 19b7 5b1c 8a38
000002d0: 5832 7738 1c9e e2b7 644c d737 8071 59b8
000002e0: ae81 87b8 6c54 0d38 9ca2 8238 958a 6038
000002f0: 0673 57b8 46ec 3db8 a754 88b8 6815 88b8
00000300: c1c0 1d38 0dcc 6738 674b 9338 2c87 5cb7
00000310: 6297 8238 c83e 9b38 57ae 8db8 4f31 1e38
00000320: b952 1737 50ee 3e37 b25a cf36 8d06 85b5
00000330: ac8d bab6 cde6 4c37 0640 a7b7 cd2e a237
00000340: 6301 7db7 3cd8 45b8 2f82 99b7 0a8a 4e38
00000350: 052e 6cb8 3df1 4738 2b15 5337 35db 5cb8
00000360: 6612 21b7 b9f7 4038 cd60 ecb7 5a9d afb7
00000370: 9b84 aa37 575e cb37 cb01 ce37 d5de a4b7
00000380: fd3e b8b7 3332 6138 d30b 21b8 57d4 10b8
00000390: c9fa 6737 f60f ec37 6ca1 8a38 e3e1 0933
000003a0: 59d0 fbb5 7ed8 abb7 b4e3 eab7 daa1 2b36
000003b0: 1b40 f837 aa42 ac37 e31c b0b7 f41d 54b7
000003c0: 3251 29b8 2142 f2b7 1555 4d38 2c3b bc37
000003d0: a583 4338 08c3 3437 1ffb e037 5d98 6538
000003e0: 0a9a 00b8 73b8 ca36 0fff 0136 9330 8036
000003f0: fc91 3eb6 1e51 bb36 36d2 8935 4468 6636
